mnist/log/default/latest.pth (torch_old, 31889 bytes, 2 tensors)

model.out.weight f4 [10, 784]
0	0x3bfbe37d	0.007687031
1	0xbc2aae39	-0.0104175145
2	0x3c4d5fb8	0.012535028
3	0xbcf3376f	-0.029689519
4	0xbcbf01e9	-0.02331634
5	0x3cb3bac9	0.021939652
6	0x3c572c8f	0.013133182
7	0xbb0cf22b	-0.0021506648
8	0x3ca13ae6	0.019681405
9	0xbbc8e5e3	-0.0061309203
10	0x3b015c09	0.0019738695
11	0xbbdce908	-0.0067416467
12	0x3c460151	0.012085275
13	0x3c0dedb0	0.008662626
14	0x3b11c5d5	0.0022243161
15	0xbc88ae03	-0.016684538
16	0x3aec922e	0.0018048936
17	0x39624445	0.00021578472
18	0xbcf63f95	-0.030059615
19	0x3cc6d07e	0.024269339
20	0xbcfe7481	-0.031061413
21	0xbccfac4b	-0.02535071
22	0xbb372aa5	-0.0027949002
23	0x3b3b5097	0.002858197
24	0xbb068df2	-0.0020531383
25	0xbbb2ccbd	-0.0054565356
26	0xbcecb772	-0.028896067
27	0x3c2bcc5f	0.010485738
28	0x3b7f0bf1	0.003891703
29	0x3c0f24b0	0.008736774
30	0xbcde63eb	-0.027147254
31	0xbcf95df3	-0.030440306
32	0x3c4c8686	0.012483245
33	0x3ba4a4ea	0.005024542
34	0xbc81f10e	-0.015862014
35	0x3c2dfec0	0.010619819
36	0xbcbe14f2	-0.023203347
37	0x3cf1ab10	0.029500514
38	0xbac527dc	-0.0015041786
39	0x3cf970cf	0.0304493
40	0xbd00e3ca	-0.031467237
41	0x3cfa41b0	0.0305489
42	0x3cafc5a0	0.02145654
43	0xbc3941c1	-0.011307181
44	0x3c24da33	0.010061788
45	0x3c014a9c	0.007891323
46	0x3d194010	0.03741461
47	0xbb290fc9	-0.0025796762
48	0x3ce4f76b	0.02795001
49	0x3cc489d0	0.023991495
50	0xbd02aa1d	-0.031900514
51	0x3b895ec2	0.004192204
52	0x3bc1ae66	0.0059106825
53	0xbcaadde9	-0.020857768
54	0xbc33dc3b	-0.0109778
55	0x3c9bf845	0.019039283
56	0xb900d1bf	-0.00012285168
57	0x3bcf62b8	0.006328907
58	0x3d18a98a	0.03727106
59	0x3d115322	0.035479672
60	0x3cac3bb6	0.021024566
61	0xbcaeed57	-0.021353407
62	0xbc44980a	-0.01199914
63	0x3c93bdd8	0.01803486
64	0x3bac785f	0.005263373
65	0x3ccc076e	0.024905887
66	0xbc992480	-0.018694162
67	0xbcc1d364	-0.02366037
68	0x3d05121a	0.032487966
69	0xbc1991eb	-0.009373168
70	0x3c6bdb7e	0.014395593
71	0x3ca82f59	0.02053039
72	0xbd0cae17	-0.034345713
73	0xbd182a40	-0.037149668
74	0xbc403e61	-0.011733622
75	0xbd0c6a32	-0.034280963
76	0x3c5930dc	0.013256278
77	0xbc7862bc	-0.015160259
78	0xbc6c4e32	-0.01442294
79	0x3c8d20c3	0.017227536
80	0xbcc38cd7	-0.023870869
81	0x3c8e87ed	0.017398799
82	0xbca17a64	-0.01971168
83	0x3cc4df16	0.024032157
84	0x3d1cead8	0.038309902
85	0xbc560a3f	-0.013063966
86	0x3a9c40ac	0.0011921129
87	0x3d03582a	0.0320665
88	0xbcc4fee0	-0.024047315
89	0xbd069da5	-0.032865185
90	0xbcfd750f	-0.030939607
91	0x3c8a673c	0.01689493
92	0x3c266663	0.010156247
93	0xbd07af9d	-0.033126462
94	0x3c31a357	0.010842166
95	0x3bf845d9	0.007576686
96	0x3cb6af93	0.022300517
97	0x3c3ff95c	0.011717167
98	0x3a20cd58	0.0006134114
99	0xbd1b008c	-0.03784232
100	0xbca2665d	-0.019824201
101	0x3bc09a13	0.005877742
102	0xbd336e68	-0.043806463
103	0x3c44d3fb	0.012013431
104	0xbbb09ea3	-0.0053900047
105	0xbc4a08bc	-0.012331184
106	0xbc661169	-0.014042237
107	0xbce41f97	-0.027847094
108	0xbd03368b	-0.032034438
109	0xbc01c122	-0.007919582
110	0xbba8d7d3	-0.0051526814
111	0x3cb658f8	0.02225922
112	0x3d0ba3f3	0.0340919
113	0x3cd9c437	0.02658282
114	0x3c652db8	0.013987951
115	0x3c39fe6b	0.011352162
116	0x3c9e1806	0.019298565
117	0x3c87c542	0.016573552
118	0xbd0eaf3c	-0.034835085
119	0x3b8d41ef	0.0043108384
120	0xbc6d6ed6	-0.014491757
121	0xbba31ed2	-0.0049780393
122	0xbcf93c8b	-0.030424377
123	0x3aeb66d5	0.0017959723
124	0x3c0f7a3d	0.008757171
125	0xbd38f357	-0.045153942
126	0xbd07264d	-0.03299551
127	0x3cefd558	0.029276535
128	0xbc5ef6da	-0.013608659
129	0x3c015cac	0.00789563
130	0xbd1e883f	-0.038704153
131	0xbcd93ec6	-0.02651919
132	0xbd20cd6f	-0.039258417
133	0xb9da341e	-0.0004161903
134	0xbcc23dbb	-0.023711076
135	0x3cb1fd0c	0.021727107
136	0x3cde7acb	0.027158162
137	0x3ce71914	0.0282102
138	0xbb1c1f8a	-0.002382251
139	0xbcbdb456	-0.02315728
140	0xbccdbc81	-0.0251143
141	0xbaeae96b	-0.0017922347
142	0x39ba86b5	0.0003557705
143	0x3d0e4337	0.03473207
144	0x3be7af01	0.0070704226
145	0x3c877fab	0.016540369
146	0xbcd761a4	-0.026291676
147	0x3c958977	0.018254025
148	0xbc6307b0	-0.013856813
149	0xbcc4658d	-0.023974204
150	0xbd368c0e	-0.04456716
151	0xba89dc17	-0.0010517862
152	0xbc4aff45	-0.012389963
153	0x3d86e5b6	0.06586783
154	0x3d4b2479	0.04959533
155	0x3d5261c5	0.05136277
156	0x3d269a22	0.040674336
157	0x3d38c872	0.045113035
158	0x3be348c5	0.006936165
159	0xbbb805d2	-0.005615928
160	0x3b806550	0.0039183274
161	0xbc73ae92	-0.014873164
162	0xbc4623eb	-0.012093524
163	0xbbe98289	-0.0071261567
164	0xbd0f4489	-0.03497747
165	0xbcdf6eed	-0.027274573
166	0x3c50b0a7	0.01273743
167	0x3cb2e7a6	0.021838974
168	0x3b9290d2	0.0044728303
169	0x3ccd167b	0.025035134
170	0xbc505a47	-0.012716836
171	0x3ce6f9fa	0.02819537
172	0x3b2680c1	0.0025406333
173	0x3b873f37	0.004127409
174	0x3baa4561	0.005196259
175	0xbc7949fa	-0.015215391
176	0xbafb0cfb	-0.0019153649
177	0xbc507393	-0.012722868
178	0xbc788bf5	-0.015170087
179	0x3b7fdd9c	0.0039042002
180	0xbc70ceae	-0.014697714
181	0x3c9f43c6	0.019441497
182	0x3d1c9f79	0.038238022
183	0x3d1374ac	0.03599994
184	0x3d8a6d24	0.06759098
185	0x3ce325bc	0.027727954
186	0x3d85ab48	0.0652681
187	0x3d66629a	0.056246378
188	0x3c42ce6c	0.011890035
189	0x3cfc2d8f	0.030783443
190	0x3d06b1f3	0.03288455
191	0xbccd8d2f	-0.025091736
192	0xbd093ee1	-0.03350723
193	0xbd17b7c0	-0.037040472
194	0x3cfe615f	0.03105229
195	0x3d19191a	0.037377454
196	0x3c2ef285	0.010677938
197	0xbbdacdae	-0.006677351
198	0x3ce5ec79	0.02806686
199	0xbc65353e	-0.013989745
200	0xbcfba555	-0.030718485
201	0x3c58647c	0.013207551
202	0x3caa5b79	0.02079557
203	0xbd5f8134	-0.054566577
204	0xbd0c10a8	-0.034195572
205	0xbbcb883e	-0.0062113097
206	0x3c9a86e5	0.01886315
207	0x3cdfc49f	0.027315436
208	0xbb9de828	-0.004818935
209	0x3d316502	0.04330922
210	0xb9e4dbaf	-0.00043651226
211	0x3d1d3992	0.03838498
212	0x3b5bda3e	0.003354683
213	0x3d8836b1	0.066510566
214	0x3d8daad8	0.069173515
215	0x3ccf4b8f	0.025304584
216	0x3c5587d4	0.013032872
217	0x3c4354f2	0.011922108
218	0x3cd061fa	0.025437344
219	0x3d3a7c26	0.045528553
220	0x3b17c040	0.0023155361
221	0x3c3b0866	0.011415577
222	0xba7cd1ff	-0.0009644329
223	0x3c2dd5d2	0.010610061
224	0x3c9db029	0.019249039
225	0x3c1519b9	0.009100371
226	0xbd03ae64	-0.032148734
227	0xbc0a3991	-0.008436576
228	0xbce5a93e	-0.028034803
229	0x3ccd16f9	0.025035368
230	0xbc9c1c64	-0.019056506
231	0xbd4ef567	-0.050527003
232	0x3b455b63	0.0030114285
233	0xbd1219c7	-0.035669114
234	0x3ccd5401	0.02506447
235	0xbc37d609	-0.011220464
236	0x3cefd86d	0.029278005
237	0x3b3a6503	0.0028441555
238	0x3ce642cb	0.028108021
239	0x3ce1ccca	0.027563471
240	0x3d7f3df1	0.06231493
241	0x3d01f0af	0.031723674
242	0x3d3182f2	0.04333777
243	0x3cdf1cf6	0.02723549
244	0x3c381993	0.011236566
245	0x3cf2358b	0.029566547
246	0x3d756fb1	0.05992097
247	0x3d39e867	0.04538765
248	0xbcf29041	-0.029609801
249	0xbc2d0820	-0.010561019
250	0x3c397a8e	0.011320723
251	0x3c6855f4	0.014180649
252	0xbcbf31d0	-0.023339182
253	0xbd00bac9	-0.031428132
254	0x3b9c41ff	0.0047686095
255	0x3d00e5a7	0.031469014

model.out.bias f4 [10]
0	0xbc9281b5	-0.017884115
1	0xbc14ba52	-0.009077625
2	0xbc8f6f8c	-0.017509244
3	0x3caaa45c	0.020830326
4	0xbcd87531	-0.026423069
5	0x3aa46bd6	0.0012544345
6	0xbbf39c9e	-0.0074344417
7	0x3cbc59eb	0.022992095
8	0xbcbaeec1	-0.022818925
9	0xbcd1ff1f	-0.025634347
